…
  mode: online
Using device: cuda
Creating dataset...
Loaded data shape: (2999, 423)
Number of neurons: 421
Sequence length: 32
Normalizing features...
Applying PCA for neural activity visualization...
Explained variance ratios: [0.6684717  0.00727231 0.00667578]
Created 2968 sequences of length 32
Class distribution:
  multiclass: {0: 1698, 1: 751, 2: 519}
  contralateral: {0: 2217, 1: 751}
  ipsilateral: {0: 2449, 1: 519}
Creating data loaders...
Data split: Train=2077, Val=445, Test=446
Creating hybrid model...
Model architecture:
HybridCNNBiLSTM(
  (cnn_layers): ModuleList(
    (0): Sequential(
      (0): Conv1d(421, 64, kernel_size=(3,), stride=(1,), padding=(1,))
      (1): DynamicNormalization(
        (batch_norm): BatchNorm1d(64, eps=1e-05, momentum=0.1, affine=True, track_running_stats=True)
        (group_norm): GroupNorm(8, 64, eps=1e-05, affine=True)
      )
      (2): ReLU()
      (3): Dropout(p=0.25, inplace=False)
    )
    (1): Sequential(
      (0): Conv1d(64, 128, kernel_size=(3,), stride=(1,), padding=(1,))
      (1): DynamicNormalization(
        (batch_norm): BatchNorm1d(128, eps=1e-05, momentum=0.1, affine=True, track_running_stats=True)
        (group_norm): GroupNorm(8, 128, eps=1e-05, affine=True)
      )
      (2): ReLU()
      (3): Dropout(p=0.25, inplace=False)
    )
    (2): Sequential(
      (0): Conv1d(128, 256, kernel_size=(3,), stride=(1,), padding=(1,))
      (1): DynamicNormalization(
        (batch_norm): BatchNorm1d(256, eps=1e-05, momentum=0.1, affine=True, track_running_stats=True)
        (group_norm): GroupNorm(8, 256, eps=1e-05, affine=True)
      )
      (2): ReLU()
    )
  )
  (skip_connection): Conv1d(421, 256, kernel_size=(1,), stride=(1,))
  (group_norm): GroupNorm(8, 256, eps=1e-05, affine=True)
  (bilstm): LSTM(256, 32, batch_first=True, bidirectional=True)
  (attention): EnhancedAttention(
    (q_proj): Linear(in_features=64, out_features=64, bias=True)
    (k_proj): Linear(in_features=64, out_features=64, bias=True)
    (v_proj): Linear(in_features=64, out_features=64, bias=True)
    (dropout): Dropout(p=0.25, inplace=False)
    (out_proj): Linear(in_features=64, out_features=64, bias=True)
  )
  (multiclass_head): Sequential(
    (0): Linear(in_features=64, out_features=32, bias=True)
    (1): LayerNorm((32,), eps=1e-05, elementwise_affine=True)
    (2): ReLU()
    (3): Dropout(p=0.5, inplace=False)
    (4): Linear(in_features=32, out_features=3, bias=True)
  )
  (contralateral_head): Sequential(
    (0): Linear(in_features=64, out_features=32, bias=True)
    (1): LayerNorm((32,), eps=1e-05, elementwise_affine=True)
    (2): ReLU()
    (3): Dropout(p=0.5, inplace=False)
    (4): Linear(in_features=32, out_features=2, bias=True)
  )
  (ipsilateral_head): Sequential(
    (0): Linear(in_features=64, out_features=32, bias=True)
    (1): LayerNorm((32,), eps=1e-05, elementwise_affine=True)
    (2): ReLU()
    (3): Dropout(p=0.5, inplace=False)
    (4): Linear(in_features=32, out_features=2, bias=True)
  )
  (neural_head): Sequential(
    (0): Linear(in_features=64, out_features=32, bias=True)
    (1): LayerNorm((32,), eps=1e-05, elementwise_affine=True)
    (2): ReLU()
    (3): Dropout(p=0.5, inplace=False)
    (4): Linear(in_features=32, out_features=1, bias=True)
  )
)
Total parameters: 414216
Starting training for hybrid model...
Epoch 1/500 - Train loss: 9.6081, Val loss: 3.7399, Learning rate: 0.000004
  Multiclass: Train acc: 0.3871, Val acc: 0.4652, Val F1: 0.4343
  Contralateral: Train acc: 0.5368, Val acc: 0.5798, Val F1: 0.2835
  Ipsilateral: Train acc: 0.6182, Val acc: 0.6225, Val F1: 0.1845
Epoch 3 (Val): 100%|██████████████████████████████████| 14/14 [00:00<00:00, 101.24it/s]
…
  mode: online
Using device: cuda
Creating dataset...
Loaded data shape: (2999, 423)
Number of neurons: 421
Sequence length: 32
Normalizing features...
Applying PCA for neural activity visualization...
Explained variance ratios: [0.6684717  0.00727231 0.00667578]
Created 2968 sequences of length 32
Class distribution:
  multiclass: {0: 1698, 1: 751, 2: 519}
  contralateral: {0: 2217, 1: 751}
  ipsilateral: {0: 2449, 1: 519}
Creating data loaders...
Data split: Train=2077, Val=445, Test=446
Creating hybrid model...
Model architecture:
HybridCNNBiLSTM(
  (cnn_layers): ModuleList(
    (0): Sequential(
      (0): Conv1d(421, 64, kernel_size=(3,), stride=(1,), padding=(1,))
      (1): DynamicNormalization(
        (batch_norm): BatchNorm1d(64, eps=1e-05, momentum=0.1, affine=True, track_running_stats=True)
        (group_norm): GroupNorm(8, 64, eps=1e-05, affine=True)
      )
      (2): ReLU()
      (3): Dropout(p=0.25, inplace=False)
    )
    (1): Sequential(
      (0): Conv1d(64, 128, kernel_size=(3,), stride=(1,), padding=(1,))
      (1): DynamicNormalization(
        (batch_norm): BatchNorm1d(128, eps=1e-05, momentum=0.1, affine=True, track_running_stats=True)
        (group_norm): GroupNorm(8, 128, eps=1e-05, affine=True)
      )
      (2): ReLU()
      (3): Dropout(p=0.25, inplace=False)
    )
    (2): Sequential(
      (0): Conv1d(128, 256, kernel_size=(3,), stride=(1,), padding=(1,))
      (1): DynamicNormalization(
        (batch_norm): BatchNorm1d(256, eps=1e-05, momentum=0.1, affine=True, track_running_stats=True)
        (group_norm): GroupNorm(8, 256, eps=1e-05, affine=True)
      )
      (2): ReLU()
    )
  )
  (skip_connection): Conv1d(421, 256, kernel_size=(1,), stride=(1,))
  (group_norm): GroupNorm(8, 256, eps=1e-05, affine=True)
  (bilstm): LSTM(256, 64, batch_first=True, bidirectional=True)
  (attention): EnhancedAttention(
    (q_proj): Linear(in_features=128, out_features=128, bias=True)
    (k_proj): Linear(in_features=128, out_features=128, bias=True)
    (v_proj): Linear(in_features=128, out_features=128, bias=True)
    (dropout): Dropout(p=0.25, inplace=False)
    (out_proj): Linear(in_features=128, out_features=128, bias=True)
  )
  (multiclass_head): Sequential(
    (0): Linear(in_features=128, out_features=64, bias=True)
    (1): LayerNorm((64,), eps=1e-05, elementwise_affine=True)
    (2): ReLU()
    (3): Dropout(p=0.5, inplace=False)
    (4): Linear(in_features=64, out_features=3, bias=True)
  )
  (contralateral_head): Sequential(
    (0): Linear(in_features=128, out_features=64, bias=True)
    (1): LayerNorm((64,), eps=1e-05, elementwise_affine=True)
    (2): ReLU()
    (3): Dropout(p=0.5, inplace=False)
    (4): Linear(in_features=64, out_features=2, bias=True)
  )
  (ipsilateral_head): Sequential(
    (0): Linear(in_features=128, out_features=64, bias=True)
    (1): LayerNorm((64,), eps=1e-05, elementwise_affine=True)
    (2): ReLU()
    (3): Dropout(p=0.5, inplace=False)
    (4): Linear(in_features=64, out_features=2, bias=True)
  )
  (neural_head): Sequential(
    (0): Linear(in_features=128, out_features=64, bias=True)
    (1): LayerNorm((64,), eps=1e-05, elementwise_affine=True)
    (2): ReLU()
    (3): Dropout(p=0.5, inplace=False)
    (4): Linear(in_features=64, out_features=1, bias=True)
  )
)
Total parameters: 579464
Starting training for hybrid model...
Epoch 1/500 - Train loss: 8.8450, Val loss: 3.0594, Learning rate: 0.000040
  Multiclass: Train acc: 0.3996, Val acc: 0.5034, Val F1: 0.4671
  Contralateral: Train acc: 0.5484, Val acc: 0.6831, Val F1: 0.2460
  Ipsilateral: Train acc: 0.6047, Val acc: 0.7978, Val F1: 0.1000
Epoch 2 (Val): 100%|██████████████████████████████████| 14/14 [00:00<00:00, 102.58it/s]information.74: UserWarning: Future Hydra versions will no longer change working directory at job runtime by default.
…
  mode: online
Using device: cuda
Creating dataset...
Loaded data shape: (2999, 423)
Number of neurons: 421
Sequence length: 32
Normalizing features...
Applying PCA for neural activity visualization...
Explained variance ratios: [0.6684717  0.00727231 0.00667578]
Created 2968 sequences of length 32
Class distribution:
  multiclass: {0: 1698, 1: 751, 2: 519}
  contralateral: {0: 2217, 1: 751}
  ipsilateral: {0: 2449, 1: 519}
Creating data loaders...
Data split: Train=2077, Val=445, Test=446
Creating hybrid model...
Model architecture:
HybridCNNBiLSTM(
  (cnn_layers): ModuleList(
    (0): Sequential(
      (0): Conv1d(421, 64, kernel_size=(3,), stride=(1,), padding=(1,))
      (1): DynamicNormalization(
        (batch_norm): BatchNorm1d(64, eps=1e-05, momentum=0.1, affine=True, track_running_stats=True)
        (group_norm): GroupNorm(8, 64, eps=1e-05, affine=True)
      )
      (2): ReLU()
      (3): Dropout(p=0.25, inplace=False)
    )
    (1): Sequential(
      (0): Conv1d(64, 128, kernel_size=(3,), stride=(1,), padding=(1,))
      (1): DynamicNormalization(
        (batch_norm): BatchNorm1d(128, eps=1e-05, momentum=0.1, affine=True, track_running_stats=True)
        (group_norm): GroupNorm(8, 128, eps=1e-05, affine=True)
      )
      (2): ReLU()
      (3): Dropout(p=0.25, inplace=False)
    )
    (2): Sequential(
      (0): Conv1d(128, 256, kernel_size=(3,), stride=(1,), padding=(1,))
      (1): DynamicNormalization(
        (batch_norm): BatchNorm1d(256, eps=1e-05, momentum=0.1, affine=True, track_running_stats=True)
        (group_norm): GroupNorm(8, 256, eps=1e-05, affine=True)
      )
      (2): ReLU()
    )
  )
  (skip_connection): Conv1d(421, 256, kernel_size=(1,), stride=(1,))
  (group_norm): GroupNorm(8, 256, eps=1e-05, affine=True)
  (bilstm): LSTM(256, 128, batch_first=True, bidirectional=True)
  (attention): EnhancedAttention(
    (q_proj): Linear(in_features=256, out_features=256, bias=True)
    (k_proj): Linear(in_features=256, out_features=256, bias=True)
    (v_proj): Linear(in_features=256, out_features=256, bias=True)
    (dropout): Dropout(p=0.25, inplace=False)
    (out_proj): Linear(in_features=256, out_features=256, bias=True)
  )
  (multiclass_head): Sequential(
    (0): Linear(in_features=256, out_features=128, bias=True)
    (1): LayerNorm((128,), eps=1e-05, elementwise_affine=True)
    (2): ReLU()
    (3): Dropout(p=0.5, inplace=False)
    (4): Linear(in_features=128, out_features=3, bias=True)
  )
  (contralateral_head): Sequential(
    (0): Linear(in_features=256, out_features=128, bias=True)
    (1): LayerNorm((128,), eps=1e-05, elementwise_affine=True)
    (2): ReLU()
    (3): Dropout(p=0.5, inplace=False)
    (4): Linear(in_features=128, out_features=2, bias=True)
  )
  (ipsilateral_head): Sequential(
    (0): Linear(in_features=256, out_features=128, bias=True)
    (1): LayerNorm((128,), eps=1e-05, elementwise_affine=True)
    (2): ReLU()
    (3): Dropout(p=0.5, inplace=False)
    (4): Linear(in_features=128, out_features=2, bias=True)
  )
  (neural_head): Sequential(
    (0): Linear(in_features=256, out_features=128, bias=True)
    (1): LayerNorm((128,), eps=1e-05, elementwise_affine=True)
    (2): ReLU()
    (3): Dropout(p=0.5, inplace=False)
    (4): Linear(in_features=128, out_features=1, bias=True)
  )
)
Total parameters: 1106568
Testing: 100%|█████████████████████████████████████████| 14/14 [00:00<00:00, 92.73it/s]information.74: UserWarning: Future Hydra versions will no longer change working directory at job runtime by default.
Epoch 1 (Val): 100%|███████████████████████████████████| 14/14 [00:00<00:00, 87.57it/s]information.74: UserWarning: Future Hydra versions will no longer change working directory at job runtime by default.
…
