…
  mode: online
Using device: cuda
Creating dataset...
Loaded data shape: (2999, 423)
Number of neurons: 421
Sequence length: 32
Normalizing features...
Applying PCA for neural activity visualization...
Explained variance ratios: [0.6684717  0.00727231 0.00667578]
Created 2968 sequences of length 32
Class distribution:
  multiclass: {0: 1698, 1: 751, 2: 519}
  contralateral: {0: 2217, 1: 751}
  ipsilateral: {0: 2449, 1: 519}
Creating data loaders...
Data split: Train=2077, Val=445, Test=446
Creating lstm model...
Model architecture:
LSTMModel(
  (lstm): LSTM(421, 32, batch_first=True)
  (batch_norm): BatchNorm1d(32, eps=1e-05, momentum=0.1, affine=True, track_running_stats=True)
  (fc1): Linear(in_features=32, out_features=64, bias=True)
  (relu1): ReLU()
  (dropout1): Dropout(p=0.5, inplace=False)
  (fc2): Linear(in_features=64, out_features=32, bias=True)
  (relu2): ReLU()
  (dropout2): Dropout(p=0.5, inplace=False)
  (multiclass_head): Linear(in_features=32, out_features=3, bias=True)
  (contralateral_head): Linear(in_features=32, out_features=2, bias=True)
  (ipsilateral_head): Linear(in_features=32, out_features=2, bias=True)
)
Total parameters: 62727
Starting training for lstm model...
Epoch 1/500 - Train loss: 1.3150, Val loss: 1.2790, Learning rate: 0.000100
  Multiclass: Train acc: 0.3495, Val acc: 0.4787, Val F1: 0.4178
  Contralateral: Train acc: 0.4892, Val acc: 0.5393, Val F1: 0.2807
  Ipsilateral: Train acc: 0.6837, Val acc: 0.8022, Val F1: 0.0222
New best model saved (val_loss: 1.2790)
…
  mode: online
Using device: cuda
Creating dataset...
Loaded data shape: (2999, 423)
Number of neurons: 421
Sequence length: 32
Normalizing features...
Applying PCA for neural activity visualization...
Explained variance ratios: [0.6684717  0.00727231 0.00667578]
Created 2968 sequences of length 32
Class distribution:
  multiclass: {0: 1698, 1: 751, 2: 519}
  contralateral: {0: 2217, 1: 751}
  ipsilateral: {0: 2449, 1: 519}
Creating data loaders...
Data split: Train=2077, Val=445, Test=446
Creating lstm model...
Model architecture:
LSTMModel(
  (lstm): LSTM(421, 64, batch_first=True)
  (batch_norm): BatchNorm1d(64, eps=1e-05, momentum=0.1, affine=True, track_running_stats=True)
  (fc1): Linear(in_features=64, out_features=64, bias=True)
  (relu1): ReLU()
  (dropout1): Dropout(p=0.5, inplace=False)
  (fc2): Linear(in_features=64, out_features=32, bias=True)
  (relu2): ReLU()
  (dropout2): Dropout(p=0.5, inplace=False)
  (multiclass_head): Linear(in_features=32, out_features=3, bias=True)
  (contralateral_head): Linear(in_features=32, out_features=2, bias=True)
  (ipsilateral_head): Linear(in_features=32, out_features=2, bias=True)
)
Total parameters: 131271
Epoch 4 (Val): 100%|██████████████████████████████████| 14/14 [00:00<00:00, 120.21it/s]launcher.py:74: UserWarning: Future Hydra versions will no longer change working directory at job runtime by default.
Epoch 4 (Val): 100%|██████████████████████████████████| 14/14 [00:00<00:00, 120.21it/s]launcher.py:74: UserWarning: Future Hydra versions will no longer change working directory at job runtime by default.
…
  mode: online
Using device: cuda
Creating dataset...
Loaded data shape: (2999, 423)
Number of neurons: 421
Sequence length: 32
Normalizing features...
Applying PCA for neural activity visualization...
Explained variance ratios: [0.6684717  0.00727231 0.00667578]
Created 2968 sequences of length 32
Class distribution:
  multiclass: {0: 1698, 1: 751, 2: 519}
  contralateral: {0: 2217, 1: 751}
  ipsilateral: {0: 2449, 1: 519}
Creating data loaders...
Data split: Train=2077, Val=445, Test=446
Creating lstm model...
Model architecture:
LSTMModel(
  (lstm): LSTM(421, 128, batch_first=True)
  (batch_norm): BatchNorm1d(128, eps=1e-05, momentum=0.1, affine=True, track_running_stats=True)
  (fc1): Linear(in_features=128, out_features=64, bias=True)
  (relu1): ReLU()
  (dropout1): Dropout(p=0.5, inplace=False)
  (fc2): Linear(in_features=64, out_features=32, bias=True)
  (relu2): ReLU()
  (dropout2): Dropout(p=0.5, inplace=False)
  (multiclass_head): Linear(in_features=32, out_features=3, bias=True)
  (contralateral_head): Linear(in_features=32, out_features=2, bias=True)
  (ipsilateral_head): Linear(in_features=32, out_features=2, bias=True)
)
Total parameters: 292935
Starting training for lstm model...
Epoch 1/500 - Train loss: 1.1803, Val loss: 1.0316, Learning rate: 0.001000
  Multiclass: Train acc: 0.5113, Val acc: 0.5663, Val F1: 0.4095
  Contralateral: Train acc: 0.6688, Val acc: 0.7551, Val F1: 0.0000
  Ipsilateral: Train acc: 0.7699, Val acc: 0.8112, Val F1: 0.0000
Epoch 5 (Val): 100%|██████████████████████████████████| 14/14 [00:00<00:00, 115.01it/s]launcher.py:74: UserWarning: Future Hydra versions will no longer change working directory at job runtime by default.
…
